hey_bro.tflite (tflite, 206964 bytes, 9 tensors)

arith.constant f4 [1, 32]
0	0x3e56b81a	0.20968667
1	0xbcd3114b	-0.025765082
2	0x3e5125a7	0.2042452
3	0x3da4f9b9	0.08055443
4	0xbc9a1b3d	-0.018811816
5	0xbeb1f080	-0.347538
6	0xbeb8afe5	-0.36071697
7	0xbde3becb	-0.11120375
8	0xbba75c33	-0.0051074266
9	0xbd3eb142	-0.046555765
10	0x3e20299a	0.1564087
11	0x3e300c21	0.17192127
12	0x3e452f3e	0.19256303
13	0x3e504fe4	0.20342976
14	0x3dad9f70	0.08477676
15	0xbd82faa2	-0.06395461
16	0x3e482be8	0.19547999
17	0x3d9cb290	0.076512456
18	0xbcb2030e	-0.021729972
19	0x3cd1736a	0.025567729
20	0xbec4cdf6	-0.38438386
21	0x3db511bc	0.08841273
22	0x3d92f859	0.07176275
23	0x3e558d73	0.2085474
24	0x3d57b5fb	0.052663784
25	0xbebbcf58	-0.36681628
26	0xbccd6ded	-0.02507683
27	0xbec7f6f6	-0.39055604
28	0x3c56b146	0.013103789
29	0xbdd72cda	-0.10506602
30	0xbed0babb	-0.40767464
31	0xbdc6b6a0	-0.09702802

arith.constant1 f4 [32, 32]
0	0x3dbe95de	0.09305929
1	0xbe515bfd	-0.20445247
2	0xbc60c277	-0.013718239
3	0x3e316013	0.17321806
4	0xbdca66e8	-0.09882909
5	0x3e1d8021	0.15380909
6	0xbe047140	-0.12933826
7	0xbd8d20d6	-0.068910286
8	0x3e4f0ba9	0.20219292
9	0xbe070a4e	-0.13187525
10	0x3dc353e7	0.095374875
11	0x3e3772b6	0.17914852
12	0x3ddc22e9	0.10748846
13	0x3d16527b	0.036699753
14	0xbddf50c4	-0.10904077
15	0x3a8289fd	0.0009959337
16	0x3e56467e	0.20925328
17	0x3cef5118	0.029213473
18	0x3def230f	0.11676609
19	0xbe061009	-0.13092054
20	0xbdb8a083	-0.0901499
21	0x3d280dd1	0.0410288
22	0x3d742a06	0.05961039
23	0x3df3965f	0.118939154
24	0x3de686e6	0.112561986
25	0x3d9434af	0.07236611
26	0xbca323da	-0.019914556
27	0x3b8771e8	0.0041334517
28	0xbb86e9d2	-0.004117229
29	0x3e34f6d8	0.17672288
30	0xbdc4e685	-0.096142806
31	0x3deb0dd7	0.11477249
32	0x3dd0a62a	0.10187943
33	0x3d42d131	0.04756278
34	0xbcdf589a	-0.027263928
35	0xbd736bd8	-0.05942902
36	0x3e0a5899	0.1351036
37	0x3e158436	0.14601216
38	0xbda11f89	-0.07867343
39	0xbddd5fc6	-0.10809283
40	0x3c5ae217	0.013359568
41	0x3d0f6137	0.03500482
42	0x3e0c6052	0.13708618
43	0x3d70d248	0.05879429
44	0xbd524fdb	-0.051345687
45	0xbc82ed43	-0.015982276
46	0x3daf5cd2	0.08562626
47	0x3d270eca	0.04078559
48	0x3b115230	0.0022174232
49	0xbd0ee486	-0.034885906
50	0xbd8e452a	-0.06946786
51	0x3d8b9cc6	0.068170115
52	0x3ddd664a	0.10810526
53	0x3de15ffb	0.11004635
54	0xbd9b1804	-0.0757294
55	0xbdca4fd6	-0.09878509
56	0x3c8d46ee	0.017245736
57	0xbc1c8837	-0.0095539605
58	0xbd9de07e	-0.07708834
59	0xbc7351ce	-0.014851047
60	0xbdfdfa25	-0.12401227
61	0x3d51e069	0.051239405
62	0xbd9b15bc	-0.07572505
63	0xbcbe4cbe	-0.023229953
64	0xbcd0101d	-0.025398308
65	0x3d55cba9	0.05219618
66	0x3e43ca95	0.19120248
67	0xbded0ca4	-0.11574677
68	0x3d565b9a	0.05233345
69	0x3e3fe7e6	0.18740806
70	0xbc723c5e	-0.0147849005
71	0xbcf0a82e	-0.02937707
72	0x3e037f6b	0.12841575
73	0xbe0e95cd	-0.13924332
74	0x3d8b8744	0.06812909
75	0x3e3d7bbe	0.18504235
76	0xbd15bc5b	-0.036556583
77	0xbe271bb3	-0.1631916
78	0xbe04a969	-0.1295525
79	0x3d2a9f24	0.041655675
80	0xbbf10f8c	-0.0073565897
81	0xbd0acf46	-0.033889078
82	0x3de54a43	0.11195805
83	0xbdf71c65	-0.12065963
84	0xba63b315	-0.0008686048
85	0x3cb35eeb	0.021895846
86	0x3e53993f	0.20663927
87	0x3c2e99de	0.010656802
88	0x3c582de3	0.013194534
89	0x3dd68fbf	0.10476636
90	0xbdd31a6f	-0.10307776
91	0xbdeddfec	-0.11614975
92	0x3d8b0742	0.06788494
93	0xbdda145f	-0.10648417
94	0xbd3823bc	-0.044955954
95	0x3cae6751	0.0212895
96	0xbdc5ef24	-0.09664753
97	0xbca15aa7	-0.019696547
98	0x3e081a66	0.1329132
99	0x3b4a5420	0.0030872896
100	0x3cdb1f94	0.026748456
101	0xbb72c352	-0.003704269
102	0xbe1fae1d	-0.15593763
103	0xbdbd2004	-0.09234622
104	0xbd20a95d	-0.039224017
105	0xbd1249d7	-0.03571495
106	0x3d22e8e2	0.039772876
107	0xbd05a41f	-0.03262722
108	0x3e025eca	0.12731472
109	0x3e188add	0.14896722
110	0xbd5a00cb	-0.053223412
111	0xbd01d0e6	-0.03169336
112	0xbd419123	-0.047257554
113	0x3b41f070	0.0029592775
114	0xbd61dd43	-0.055142652
115	0xbe17d811	-0.14828517
116	0xbdef1c33	-0.116753004
117	0xbb6db20f	-0.0036269461
118	0xbdc56522	-0.0963843
119	0xbd4da464	-0.050205603
120	0xbd2575a6	-0.0403954
121	0x3da65277	0.08121198
122	0xbd00911d	-0.03138839
123	0x3dc8c861	0.09803844
124	0x3c9e0fc7	0.019294633
125	0xbd75c94c	-0.060006425
126	0x3deda045	0.116028346
127	0x3da87243	0.08224919
128	0xbca092ee	-0.019601312
129	0xbd41bf08	-0.047301322
130	0xbced53f0	-0.028970689
131	0xbdd0a2f3	-0.1018733
132	0xbc159e5d	-0.009131995
133	0x3cc12ede	0.023581918
134	0xbd881dec	-0.06646332
135	0xbbae3e2d	-0.0053174705
136	0xbddb4bff	-0.107078545
137	0xbe00ba74	-0.12571126
138	0xbd8c91b4	-0.06863728
139	0x3e11889e	0.14212272
140	0xbdccdd1c	-0.10003111
141	0x3e07b56b	0.13252799
142	0x3d92388e	0.07139693
143	0xbca45eb9	-0.020064699
144	0x3e007e1f	0.12548111
145	0xbd116957	-0.03550085
146	0xbaa46f71	-0.0012545419
147	0x3dbb191b	0.09135648
148	0x3e24e9f3	0.1610487
149	0x3db142ef	0.08655345
150	0x3dac41c1	0.08410979
151	0x3e1938ac	0.14963025
152	0xbce28399	-0.027650641
153	0x3e66954f	0.22517894
154	0x3c2b0e73	0.010440457
155	0x3d68b9eb	0.05681793
156	0x3e160b9c	0.14652866
157	0x3dfcac71	0.12337578
158	0x3e001a0d	0.12509938
159	0xbde402e8	-0.11133367
160	0xbe0abe71	-0.1354921
161	0x3dc49b37	0.095999174
162	0x3d4bbf01	0.049742702
163	0x3debcf57	0.11514156
164	0x3d9970df	0.074922316
165	0xbde96b6a	-0.11397441
166	0x3daa93b6	0.08328955
167	0x3df4275b	0.11921569
168	0xbe4abcc0	-0.19798565
169	0x3e064344	0.13111597
170	0xbe029d8e	-0.12755415
171	0xbe254db9	-0.1614293
172	0x3c2023a3	0.009774121
173	0x3e3daee2	0.18523744
174	0xbe11e5ba	-0.1424779
175	0xbbd78214	-0.006576786
176	0xbe112c85	-0.14177139
177	0x3dc53d82	0.09630872
178	0xbd990b3b	-0.07472845
179	0x3e3ef995	0.18649895
180	0xbced835c	-0.028993301
181	0x3d398128	0.04528919
182	0xbd455920	-0.0481807
183	0xbd6120f8	-0.054963082
184	0xbd4160aa	-0.047211327
185	0x3cfd8d53	0.030951178
186	0x3d34e191	0.04416043
187	0x3de2e44b	0.110787
188	0x3d2736c8	0.040823728
189	0xbd90107c	-0.07034394
190	0x3d00a840	0.031410456
191	0xbe08a3c5	-0.13343723
192	0xbdf3d651	-0.11906112
193	0x3dde363b	0.108501874
194	0x3d9d1dde	0.07671712
195	0x3c15d119	0.009144091
196	0x3d43ce55	0.047804195
197	0xbd5e12d5	-0.05421718
198	0x3dd06a0c	0.10176477
199	0xbde89760	-0.113569975
200	0xbe20fedb	-0.1572222
201	0x3c7cf5bb	0.015439446
202	0x3ce416eb	0.02784296
203	0xbe058843	-0.13040261
204	0x3e144eba	0.14483157
205	0x3e058f35	0.1304291
206	0xbc8c138d	-0.017099166
207	0xbe3d241e	-0.18470809
208	0x39d37916	0.00040335272
209	0xbe0148eb	-0.12625472
210	0x3de70197	0.112796
211	0xbdb6561e	-0.08903144
212	0xbd020ec3	-0.03175236
213	0xbdb5ff8d	-0.08886633
214	0xbca98a2a	-0.020695765
215	0xbd889515	-0.0666906
216	0xbe0db356	-0.13837942
217	0x3e2b945a	0.1675581
218	0x3d2da863	0.042396914
219	0x3e165198	0.14679563
220	0x3d65276f	0.05594581
221	0xbd12b389	-0.03581575
222	0xbe1b3474	-0.15156728
223	0xbb9fbb37	-0.0048746127
224	0xbd3f5916	-0.04671582
225	0x3d554148	0.05206421
226	0xbdbb7f9b	-0.09155198
227	0xbd69d658	-0.05708918
228	0xbc4b9e47	-0.012427873
229	0x3dfe3cce	0.12413941
230	0xbd77f4d5	-0.060536224
231	0xbda23579	-0.07920355
232	0x3d9afe91	0.07568086
233	0x3a639111	0.00086809794
234	0x3e189dfe	0.14904019
235	0xbe0d61d4	-0.1380685
236	0xbdd95508	-0.106119215
237	0xbdcd5d4d	-0.10027561
238	0x3da3c2e2	0.07996155
239	0xbd10cd6e	-0.035352163
240	0xbdcb2509	-0.09919173
241	0x3d91b1a8	0.07113963
242	0x3cc02ccc	0.02345886
243	0xbd91b976	-0.07115452
244	0x3daaf897	0.08348196
245	0xbd108005	-0.03527834
246	0xbd183d6d	-0.037167955
247	0xbd7e6e4d	-0.06211691
248	0x3e0576ed	0.13033648
249	0x3a49e25a	0.00077012705
250	0xbd285cdc	-0.041104183
251	0xbb69821b	-0.0035630527
252	0xbd4e52fb	-0.050372105
253	0xbd9b9f2b	-0.07598718
254	0xbe073b1b	-0.1320614
255	0x3ce065db	0.027392318

arith.constant2 f4 [32, 1536]
0	0x3cfbe4d4	0.030748762
1	0x3ccf3ba2	0.02529699
2	0x3bc2d2a6	0.0059455214
3	0xbd771cbe	-0.060330145
4	0x3bbeedf7	0.0058267075
5	0x3c7b693e	0.015344916
6	0xbc6a9ca0	-0.014319569
7	0xbbf45581	-0.007456482
8	0xbd0591f8	-0.03260991
9	0x3c27c301	0.010239364
10	0x3cb023c7	0.021501435
11	0x3a4be6aa	0.0007778207
12	0xbcb8df58	-0.022567436
13	0xbcb9ab80	-0.022664785
14	0x3c2da410	0.010598198
15	0x3d444df3	0.0479259
16	0x3c90315c	0.017601661
17	0x3a655afa	0.00087492133
18	0xbb6a3d02	-0.003574193
19	0xbcca771f	-0.024715004
20	0x3c5a9708	0.013341673
21	0xbc9e34f3	-0.019312358
22	0x3c9680fe	0.018372055
23	0x3aece6b0	0.0018074121
24	0x3c9bdf59	0.019027399
25	0xbc64fb45	-0.013975923
26	0xbbbe8452	-0.0058141137
27	0x3ccae0e7	0.024765445
28	0x3c8651a6	0.016396355
29	0xbbdcf56a	-0.006743123
30	0xbc7177d1	-0.014738039
31	0x3bf9347a	0.0076051326
32	0x3c573ec8	0.013137527
33	0x3c9cb0a3	0.019127196
34	0xbd0f61b0	-0.03500527
35	0xba26b37a	-0.00063591416
36	0xbc939e5e	-0.018019851
37	0x3bbea865	0.005818414
38	0xbc95717a	-0.018242586
39	0x3c88abf3	0.016683554
40	0x3c983d1c	0.018583827
41	0x3a85f898	0.0010221181
42	0xbc51f647	-0.012815065
43	0x3c143dc5	0.00904793
44	0x3c89d22a	0.016823847
45	0x3cccffae	0.025024261
46	0x3caa7bbd	0.020810956
47	0xbca9dea6	-0.02073605
48	0xbcc84626	-0.024447512
49	0x3d02ae9a	0.031904794
50	0xbaef5166	-0.0018258512
51	0x3b8adbc5	0.0042376244
52	0x3c529869	0.01285372
53	0x3c7a4127	0.015274323
54	0x3c767630	0.0150428265
55	0xbb19f152	-0.0023489785
56	0x3c59d51b	0.013295437
57	0xba426195	-0.00074150536
58	0xbbd445ae	-0.006478033
59	0xbd169070	-0.03675884
60	0xbab3c413	-0.0013715051
61	0x3baeedb5	0.0053383955
62	0x3cd7898f	0.02631071
63	0x3b952b6a	0.0045522945
64	0x3bb400fb	0.005493281
65	0x3b90362b	0.0044009886
66	0x3c4a0522	0.012330325
67	0x3bc6b31c	0.006063832
68	0xbc5e1df1	-0.013556943
69	0x3cce1c50	0.025159985
70	0xbcdccfd5	-0.02695457
71	0x3c0aa466	0.008462047
72	0xbc99268f	-0.018695144
73	0x3c3015b0	0.010747358
74	0x3ce5ec4f	0.028066782
75	0x3bcb9c9b	0.006213737
76	0x3cc7106c	0.024299823
77	0x3c8f0ddb	0.017462661
78	0xbc7c6751	-0.015405492
79	0xbcb89210	-0.022530586
80	0xbc2aaa44	-0.010416571
81	0xbbe11b19	-0.0068696854
82	0x3c029695	0.007970472
83	0xbcec2445	-0.028825888
84	0x3cd3f728	0.02587469
85	0xbcf54045	-0.029937873
86	0xbc4c5b2b	-0.012472908
87	0x3c391160	0.011295646
88	0x3c5ceb1e	0.013483791
89	0x3c83c74b	0.016086241
90	0x3ca9247e	0.020647284
91	0xbb6c2f9b	-0.0036039117
92	0x3b70f264	0.003676557
93	0xbc5a615d	-0.013328877
94	0xbc091a16	-0.008368036
95	0x398f257a	0.00027303008
96	0x3c8706a2	0.016482655
97	0xbc7a1502	-0.015263798
98	0xbc8915d2	-0.016734038
99	0xbc6dcdfb	-0.014514442
100	0x3d07b825	0.0331346
101	0x3b29f5d9	0.002593389
102	0xbc7a47aa	-0.015275875
103	0x3c4ee184	0.012627009
104	0xbc935c94	-0.01798848
105	0x3c3cc3cb	0.01152129
106	0x3c8c9afc	0.017163746
107	0xbc82ab01	-0.015950682
108	0xbcbd3d41	-0.023100497
109	0x3cc0cb09	0.023534315
110	0x3c95d297	0.018288894
111	0xbc1c38cb	-0.009535025
112	0xbc19d899	-0.00939002
113	0x3bb40f3d	0.0054949806
114	0x3cf3e5cf	0.029772667
115	0x3c3bf3cb	0.011471699
116	0xbba03390	-0.004888959
117	0xbc72e937	-0.014826111
118	0xbc622d25	-0.013804709
119	0xbc340f3a	-0.010989958
120	0xbbcc0990	-0.006226726
121	0x3ce9d510	0.028543979
122	0x3ba9491e	0.005166187
123	0x3c8a7ebb	0.016906133
124	0xbc78af10	-0.015178457
125	0x3b9904f9	0.0046697822
126	0x3bbe67dc	0.005810721
127	0x3c2d2ff0	0.010570511
128	0xbbc6c183	-0.006065549
129	0xbb8ce114	-0.0042992923
130	0xbca4c693	-0.020114219
131	0xbca4b77a	-0.02010702
132	0xbc82ae7b	-0.01595234
133	0xbca77e4b	-0.020445963
134	0x3bee0b34	0.007264519
135	0xbc8d890e	-0.017277267
136	0xbb96dadd	-0.0046037273
137	0xbb09906e	-0.0020990628
138	0x3c6f4649	0.01460416
139	0x3ca26af1	0.019826384
140	0x3c1e32ae	0.009655638
141	0x3cb6a0e4	0.022293516
142	0x3c850429	0.016237335
143	0x3b849eab	0.004047235
144	0xbbdd6da6	-0.006757456
145	0x3c8383c7	0.016054047
146	0x3c56cd0f	0.013110413
147	0xbc1b2c14	-0.009470958
148	0x3b2bf3fa	0.002623795
149	0xbc315409	-0.010823258
150	0x3c0b11e5	0.008488153
151	0x3c5ed253	0.01359995
152	0xbcd378fe	-0.02581453
153	0x3cc0b38e	0.023523118
154	0xbca94161	-0.020661058
155	0xbc4fb7a1	-0.012678058
156	0xbbb0f5e1	-0.005400405
157	0x3d0ffa8a	0.035151042
158	0x3cdcad81	0.026938202
159	0x3b802ca1	0.00391157
160	0x3c5563f3	0.013024318
161	0x3b7a298f	0.0038171744
162	0x3cc75824	0.02433402
163	0x3cd9cd5e	0.026587185
164	0xbd000997	-0.031259146
165	0x3ba56e7e	0.005048572
166	0x3a85f496	0.0010219987
167	0xbcebdf54	-0.028793015
168	0x3b5a6f60	0.0033330545
169	0x3cdb576f	0.02677509
170	0xbc89d872	-0.016826842
171	0x3c966263	0.018357461
172	0x3ca24e67	0.019812776
173	0x3c92579d	0.017864043
174	0xbb99075c	-0.0046700668
175	0x3bd1ebda	0.0064062895
176	0x3b506855	0.0031800468
177	0x3c843523	0.016138619
178	0xbb3a959e	-0.0028470526
179	0x3c2757ef	0.010213836
180	0x3c8d40af	0.017242758
181	0xbbc5be3c	-0.0060346406
182	0x3cf4ff69	0.029906945
183	0xbc2bfa77	-0.010496727
184	0x3cc84119	0.024445103
185	0x3c97b379	0.018518196
186	0x3bf5b160	0.0074979514
187	0x3c7f1970	0.01557003
188	0xbb738704	-0.0037159333
189	0xbc9c8ee8	-0.019111112
190	0x3b568207	0.003273131
191	0xbcfecccc	-0.031103514
192	0xbb90de82	-0.0044210562
193	0xbca826fa	-0.020526398
194	0xbcdd410f	-0.027008561
195	0x3c185a0a	0.009298811
196	0x3c9db9b6	0.019253593
197	0x3ca27690	0.019831926
198	0x3ba621de	0.0050699553
199	0xbcf9ac0d	-0.030477548
200	0xbb6f2068	-0.0036487821
201	0xbc80c087	-0.015716804
202	0x3bef9d93	0.0073124855
203	0x3c8df7ea	0.017330129
204	0x3ca37f82	0.019958261
205	0x3bf73f98	0.0075454228
206	0xbc80c065	-0.01571674
207	0xbd206ca0	-0.039166093
208	0xbbd581db	-0.006515724
209	0x3c3e2732	0.011606025
210	0xbb768c97	-0.003762042
211	0x3c9dfb51	0.019284876
212	0xb9bf3281	-0.00036467987
213	0x3cbea861	0.023273649
214	0xbc1dd784	-0.009633902
215	0x3b41a5fd	0.00295484
216	0x3c8f0622	0.017458979
217	0xbb993da4	-0.0046765376
218	0x3cc1b76e	0.023647036
219	0x3c21f233	0.009884405
220	0x3c71042d	0.014710468
221	0x3c4d5f39	0.01253491
222	0x3be398b1	0.0069456925
223	0x3b6d4446	0.0036204024
224	0x3a8aef54	0.001059989
225	0x3a8d6d10	0.001078995
226	0xbd0f95cd	-0.03505497
227	0xbc83b604	-0.016078003
228	0x3cb205df	0.021731315
229	0x3c0e9c1d	0.0087042125
230	0x3cf26248	0.02958788
231	0xbc70122f	-0.014652773
232	0x3cbda460	0.02314967
233	0x3c94a46d	0.01814481
234	0x3c0d60b4	0.008629013
235	0x3b50d85c	0.0031867241
236	0xbc605bca	-0.013693759
237	0x3c10b996	0.00883331
238	0x3cddf631	0.027094932
239	0x3b216fd7	0.0024633312
240	0xbc1a23ad	-0.00940792
241	0x3bdd991d	0.0067626373
242	0x3bee4e8b	0.0072725466
243	0xbb7f5790	-0.0038962103
244	0x3ccfe1b9	0.025376188
245	0x3be64b12	0.007027992
246	0x3c20edb3	0.009822297
247	0xbc1ae724	-0.009454522
248	0xbc667882	-0.014066817
249	0xbb712f27	-0.0036801787
250	0xbc3b894d	-0.011446309
251	0xba30d3ac	-0.0006745409
252	0x3c8fd0d0	0.017555624
253	0x3cd5e321	0.02610928
254	0x3c801048	0.015632764
255	0xbcaca5fe	-0.021075245

model_8/tf.__operators__.add/AddV2/y f4 [32]
0	0x3c186261	0.009300799
1	0xbc3ef31a	-0.01165464
2	0xbc6ff5fd	-0.0146460505
3	0x3c7ca6a5	0.0154205905
4	0xbcbe568e	-0.023234632
5	0xbcc12d6e	-0.023581233
6	0x3cb3f435	0.021967033
7	0xbc6878da	-0.0141889695
8	0xbc899de1	-0.016798915
9	0xbc07c2e5	-0.008286213
10	0xbc5c2a64	-0.013437841
11	0xbc5e89f9	-0.0135827
12	0x3c1c5199	0.009540939
13	0x3c071345	0.00824434
14	0xbbe9af83	-0.0071315183
15	0xbcaa519f	-0.020790873
16	0x3b0ab617	0.0021165663
17	0x3bbc5e4e	0.0057485467
18	0x3cc9f165	0.024651239
19	0x3c0e7c5a	0.00869664
20	0xbbce398a	-0.0062934803
21	0xbc8477d6	-0.016170423
22	0x3c8890f3	0.01667068
23	0xbb0aa0e9	-0.0021153039
24	0xbca6780c	-0.020320915
25	0xbb4b328a	-0.0031005465
26	0xbba44d72	-0.005014115
27	0x3a862700	0.0010235012
28	0x3ba2f7c6	0.0049733846
29	0x3b886fa7	0.0041637006
30	0xbc8935cc	-0.016749285
31	0x3c076c16	0.008265516

model_8/tf.__operators__.add_1/AddV2/y f4 [32]
0	0xbd303839	-0.043022368
1	0xbd8835c5	-0.06650881
2	0xbd327d04	-0.043576255
3	0x3e2588bf	0.16165446
4	0xbe3be218	-0.18347967
5	0x3e26823e	0.16260621
6	0x3ddcbdf8	0.10778421
7	0x3e1bbc33	0.15208511
8	0x3db633a2	0.08896567
9	0xbe033d00	-0.12816238
10	0xbda15306	-0.078771636
11	0x3dde3cb4	0.10851422
12	0x3daa16ac	0.083051056
13	0x3d8c1c50	0.06841338
14	0x3cb09410	0.021554977
15	0x3e317f82	0.17333797
16	0x3d92b675	0.07163707
17	0xbdce304f	-0.10067808
18	0xbe2574dd	-0.16157861
19	0xbda05c96	-0.07830159
20	0x3e2fb516	0.17158923
21	0xbdf23973	-0.11827364
22	0xbe0d29ee	-0.13785526
23	0x3d888ef2	0.0666789
24	0xbdb0b5cd	-0.08628426
25	0x3d952983	0.07283308
26	0xbdaadac7	-0.0834251
27	0x3dfa324a	0.12216623
28	0xbe32e646	-0.17470655
29	0xbd7a740a	-0.06114582
30	0x3d1d537b	0.03840969
31	0xbdb4bce3	-0.0882509

model_8/tf.math.add_2/Add/y f4 [1, 32]
0	0xbcb2a3b8	-0.021806583
1	0x3a90beaa	0.001104315
2	0xbce7c0d1	-0.028290184
3	0xbc865dfa	-0.016402233
4	0xbd021e3f	-0.031767126
5	0xbc5f6872	-0.013635742
6	0x3a76c49c	0.00094134524
7	0xbcb02a4a	-0.02150454
8	0xb9bb2a75	-0.00035699052
9	0xbd1f87f3	-0.03894801
10	0xbc4c3729	-0.012464323
11	0xbc4a6900	-0.0123541355
12	0xba334891	-0.00068391213
13	0xbbc4db9f	-0.006007626
14	0xbd13e85a	-0.03611026
15	0xbca8e561	-0.020617189
16	0xbcae6143	-0.021286612
17	0xbcc89418	-0.02448468
18	0xb699be4f	-4.58191e-06
19	0x3bcb7b8d	0.0062097968
20	0xbd2221fd	-0.039583195
21	0xbc94aff8	-0.018150315
22	0x3c220acb	0.009890269
23	0xbcd05020	-0.025428832
24	0xbcd420a4	-0.02589447
25	0xbc9d20c8	-0.01918067
26	0xbcce85ae	-0.025210228
27	0xbd315285	-0.043291587
28	0xbccaf846	-0.02477659
29	0xbd3b5157	-0.04573187
30	0xbd0bcbc8	-0.034129888
31	0xbca975f7	-0.020686133

model_8/tf.math.add_5/Add/y f4 [1, 32]
0	0x3caafca6	0.020872425
1	0xbc06d263	-0.008228871
2	0x3cd41649	0.025889533
3	0xbd1273f9	-0.03575513
4	0x3b355fc5	0.0027675491
5	0x3eabd721	0.33562568
6	0x3ea1d492	0.3160749
7	0xbd4897e5	-0.048972983
8	0xbbf45095	-0.007455895
9	0xba3bf0d6	-0.0007169371
10	0x3cca1c3d	0.024671668
11	0x3d4140df	0.047181007
12	0x3be998a6	0.007128793
13	0x3d1588c3	0.03650738
14	0x3d2e00af	0.04248112
15	0xbbd4db22	-0.006495849
16	0x3d205852	0.03914673
17	0xbc26b87a	-0.010175819
18	0x3be2e71a	0.006924522
19	0xbc785920	-0.015157968
20	0x3e9707dd	0.29498187
21	0xbc91b1d3	-0.017784989
22	0x3b89cfcf	0.004205681
23	0x3d3935fa	0.04521749
24	0x3be1cfbf	0.0068912203
25	0x3e974c00	0.2955017
26	0xbd8db736	-0.0691971
27	0x3e8b11b2	0.27161938
28	0x3bd8820d	0.0066073
29	0xbc974fc9	-0.018470662
30	0x3e8cd3d3	0.2750536
31	0x3af1b6f9	0.0018441371

model_8/tf.math.multiply_10/Mul/y f4 [1, 32]
0	0x3f8089b1	1.004202
1	0x3f800f8d	1.0004746
2	0x3f7ef815	0.99597293
3	0x3f7e9788	0.9944997
4	0x3f7a1fc2	0.9770471
5	0x3f811a13	1.0086082
6	0x3f7dcccf	0.9914064
7	0x3f802c13	1.001345
8	0x3f80b8cf	1.0056399
9	0x3f777950	0.96669483
10	0x3f809405	1.0045172
11	0x3f8143d4	1.0098825
12	0x3f78a11d	0.9712084
13	0x3f764e04	0.9621279
14	0x3f7c34a6	0.98517835
15	0x3f846acf	1.0345095
16	0x3f80990d	1.0046707
17	0x3f824426	1.0177047
18	0x3f7ba43e	0.9829749
19	0x3f810edc	1.008266
20	0x3f7a2a7e	0.9772109
21	0x3f78bbb4	0.9716141
22	0x3f810787	1.0080422
23	0x3f7cc248	0.9873395
24	0x3f799f7b	0.9750897
25	0x3f80cbf6	1.0062244
26	0x3f7d316d	0.9890354
27	0x3f75bb29	0.9598871
28	0x3f7d7139	0.9900089
29	0x3f8050fc	1.0024714
30	0x3f7a489c	0.97767043
31	0x3f7ac71c	0.97960067

model_8/tf.math.multiply_22/Mul/y f4 [1, 32]
0	0x3f846ad2	1.0345099
1	0x3f7e5e1e	0.9936236
2	0x3f861d05	1.0477606
3	0x3f7b66b5	0.98203593
4	0x3f8023d4	1.0010934
5	0x3fb157f2	1.3854964
6	0x3facf9f3	1.3513778
7	0x3f719441	0.9436684
8	0x3f7efcd7	0.99604553
9	0x3f7fa0af	0.9985456
10	0x3f85638d	1.0421005
11	0x3f8d2bbf	1.1028975
12	0x3f824958	1.0178633
13	0x3f8b2d5f	1.0873221
14	0x3f8884ce	1.0665529
15	0x3f7d44c2	0.9893304
16	0x3f891539	1.0709602
17	0x3f800f19	1.0004607
18	0x3f7f30ce	0.99683845
19	0x3f71953f	0.94368356
20	0x3fa83f11	1.3144246
21	0x3f7d861d	0.99032766
22	0x3f822d55	1.0170084
23	0x3f89bad3	1.0760139
24	0x3f8266e7	1.0187653
25	0x3fa72db8	1.3060827
26	0x3f6f1ba1	0.93401533
27	0x3fa00560	1.250164
28	0x3f818a86	1.0120399
29	0x3f7dfb47	0.99211544
30	0x3fa170e4	1.2612576
31	0x3f804323	1.0020489
